{
    "format": "layers-model",
    "generatedBy": "keras v3.8.0",
    "convertedBy": "TensorFlow.js Converter v4.22.0",
    "modelTopology": {
        "keras_version": "3.8.0",
        "backend": "tensorflow",
        "model_config": {
            "class_name": "Sequential",
            "config": {
                "name": "sequential_1",
                "trainable": true,
                "dtype": {
                    "module": "keras",
                    "class_name": "DTypePolicy",
                    "config": {
                        "name": "float32"
                    },
                    "registered_name": null
                },
                "layers": [
                    {
                        "class_name": "InputLayer",
                        "config": {
                            "batch_shape": [
                                null,
                                224,
                                224,
                                3
                            ],
                            "dtype": "float32",
                            "sparse": false,
                            "name": "input_layer"
                        }
                    },
                    {
                        "class_name": "Conv2D",
                        "config": {
                            "name": "conv2d_8",
                            "trainable": true,
                            "dtype": {
                                "module": "keras",
                                "class_name": "DTypePolicy",
                                "config": {
                                    "name": "float32"
                                },
                                "registered_name": null
                            },
                            "filters": 32,
                            "kernel_size": [
                                3,
                                3
                            ],
                            "strides": [
                                1,
                                1
                            ],
                            "padding": "same",
                            "data_format": "channels_last",
                            "dilation_rate": [
                                1,
                                1
                            ],
                            "groups": 1,
                            "activation": "linear",
                            "use_bias": false,
                            "kernel_initializer": {
                                "module": "keras.initializers",
                                "class_name": "GlorotUniform",
                                "config": {
                                    "seed": null
                                },
                                "registered_name": null
                            },
                            "bias_initializer": {
                                "module": "keras.initializers",
                                "class_name": "Zeros",
                                "config": {},
                                "registered_name": null
                            },
                            "kernel_regularizer": null,
                            "bias_regularizer": null,
                            "activity_regularizer": null,
                            "kernel_constraint": null,
                            "bias_constraint": null
                        }
                    },
                    {
                        "class_name": "BatchNormalization",
                        "config": {
                            "name": "batch_normalization_10",
                            "trainable": true,
                            "dtype": {
                                "module": "keras",
                                "class_name": "DTypePolicy",
                                "config": {
                                    "name": "float32"
                                },
                                "registered_name": null
                            },
                            "axis": -1,
                            "momentum": 0.99,
                            "epsilon": 0.001,
                            "center": true,
                            "scale": true,
                            "beta_initializer": {
                                "module": "keras.initializers",
                                "class_name": "Zeros",
                                "config": {},
                                "registered_name": null
                            },
                            "gamma_initializer": {
                                "module": "keras.initializers",
                                "class_name": "Ones",
                                "config": {},
                                "registered_name": null
                            },
                            "moving_mean_initializer": {
                                "module": "keras.initializers",
                                "class_name": "Zeros",
                                "config": {},
                                "registered_name": null
                            },
                            "moving_variance_initializer": {
                                "module": "keras.initializers",
                                "class_name": "Ones",
                                "config": {},
                                "registered_name": null
                            },
                            "beta_regularizer": null,
                            "gamma_regularizer": null,
                            "beta_constraint": null,
                            "gamma_constraint": null,
                            "synchronized": false
                        }
                    },
                    {
                        "class_name": "LeakyReLU",
                        "config": {
                            "name": "leaky_re_lu_10",
                            "trainable": true,
                            "dtype": {
                                "module": "keras",
                                "class_name": "DTypePolicy",
                                "config": {
                                    "name": "float32"
                                },
                                "registered_name": null
                            },
                            "negative_slope": 0.1
                        }
                    },
                    {
                        "class_name": "Conv2D",
                        "config": {
                            "name": "conv2d_9",
                            "trainable": true,
                            "dtype": {
                                "module": "keras",
                                "class_name": "DTypePolicy",
                                "config": {
                                    "name": "float32"
                                },
                                "registered_name": null
                            },
                            "filters": 32,
                            "kernel_size": [
                                3,
                                3
                            ],
                            "strides": [
                                1,
                                1
                            ],
                            "padding": "same",
                            "data_format": "channels_last",
                            "dilation_rate": [
                                1,
                                1
                            ],
                            "groups": 1,
                            "activation": "linear",
                            "use_bias": false,
                            "kernel_initializer": {
                                "module": "keras.initializers",
                                "class_name": "GlorotUniform",
                                "config": {
                                    "seed": null
                                },
                                "registered_name": null
                            },
                            "bias_initializer": {
                                "module": "keras.initializers",
                                "class_name": "Zeros",
                                "config": {},
                                "registered_name": null
                            },
                            "kernel_regularizer": null,
                            "bias_regularizer": null,
                            "activity_regularizer": null,
                            "kernel_constraint": null,
                            "bias_constraint": null
                        }
                    },
                    {
                        "class_name": "BatchNormalization",
                        "config": {
                            "name": "batch_normalization_11",
                            "trainable": true,
                            "dtype": {
                                "module": "keras",
                                "class_name": "DTypePolicy",
                                "config": {
                                    "name": "float32"
                                },
                                "registered_name": null
                            },
                            "axis": -1,
                            "momentum": 0.99,
                            "epsilon": 0.001,
                            "center": true,
                            "scale": true,
                            "beta_initializer": {
                                "module": "keras.initializers",
                                "class_name": "Zeros",
                                "config": {},
                                "registered_name": null
                            },
                            "gamma_initializer": {
                                "module": "keras.initializers",
                                "class_name": "Ones",
                                "config": {},
                                "registered_name": null
                            },
                            "moving_mean_initializer": {
                                "module": "keras.initializers",
                                "class_name": "Zeros",
                                "config": {},
                                "registered_name": null
                            },
                            "moving_variance_initializer": {
                                "module": "keras.initializers",
                                "class_name": "Ones",
                                "config": {},
                                "registered_name": null
                            },
                            "beta_regularizer": null,
                            "gamma_regularizer": null,
                            "beta_constraint": null,
                            "gamma_constraint": null,
                            "synchronized": false
                        }
                    },
                    {
                        "class_name": "LeakyReLU",
                        "config": {
                            "name": "leaky_re_lu_11",
                            "trainable": true,
                            "dtype": {
                                "module": "keras",
                                "class_name": "DTypePolicy",
                                "config": {
                                    "name": "float32"
                                },
                                "registered_name": null
                            },
                            "negative_slope": 0.1
                        }
                    },
                    {
                        "class_name": "MaxPooling2D",
                        "config": {
                            "name": "max_pooling2d_4",
                            "trainable": true,
                            "dtype": {
                                "module": "keras",
                                "class_name": "DTypePolicy",
                                "config": {
                                    "name": "float32"
                                },
                                "registered_name": null
                            },
                            "pool_size": [
                                2,
                                2
                            ],
                            "padding": "valid",
                            "strides": [
                                2,
                                2
                            ],
                            "data_format": "channels_last"
                        }
                    },
                    {
                        "class_name": "Conv2D",
                        "config": {
                            "name": "conv2d_10",
                            "trainable": true,
                            "dtype": {
                                "module": "keras",
                                "class_name": "DTypePolicy",
                                "config": {
                                    "name": "float32"
                                },
                                "registered_name": null
                            },
                            "filters": 64,
                            "kernel_size": [
                                3,
                                3
                            ],
                            "strides": [
                                1,
                                1
                            ],
                            "padding": "same",
                            "data_format": "channels_last",
                            "dilation_rate": [
                                1,
                                1
                            ],
                            "groups": 1,
                            "activation": "linear",
                            "use_bias": false,
                            "kernel_initializer": {
                                "module": "keras.initializers",
                                "class_name": "GlorotUniform",
                                "config": {
                                    "seed": null
                                },
                                "registered_name": null
                            },
                            "bias_initializer": {
                                "module": "keras.initializers",
                                "class_name": "Zeros",
                                "config": {},
                                "registered_name": null
                            },
                            "kernel_regularizer": null,
                            "bias_regularizer": null,
                            "activity_regularizer": null,
                            "kernel_constraint": null,
                            "bias_constraint": null
                        }
                    },
                    {
                        "class_name": "BatchNormalization",
                        "config": {
                            "name": "batch_normalization_12",
                            "trainable": true,
                            "dtype": {
                                "module": "keras",
                                "class_name": "DTypePolicy",
                                "config": {
                                    "name": "float32"
                                },
                                "registered_name": null
                            },
                            "axis": -1,
                            "momentum": 0.99,
                            "epsilon": 0.001,
                            "center": true,
                            "scale": true,
                            "beta_initializer": {
                                "module": "keras.initializers",
                                "class_name": "Zeros",
                                "config": {},
                                "registered_name": null
                            },
                            "gamma_initializer": {
                                "module": "keras.initializers",
                                "class_name": "Ones",
                                "config": {},
                                "registered_name": null
                            },
                            "moving_mean_initializer": {
                                "module": "keras.initializers",
                                "class_name": "Zeros",
                                "config": {},
                                "registered_name": null
                            },
                            "moving_variance_initializer": {
                                "module": "keras.initializers",
                                "class_name": "Ones",
                                "config": {},
                                "registered_name": null
                            },
                            "beta_regularizer": null,
                            "gamma_regularizer": null,
                            "beta_constraint": null,
                            "gamma_constraint": null,
                            "synchronized": false
                        }
                    },
                    {
                        "class_name": "LeakyReLU",
                        "config": {
                            "name": "leaky_re_lu_12",
                            "trainable": true,
                            "dtype": {
                                "module": "keras",
                                "class_name": "DTypePolicy",
                                "config": {
                                    "name": "float32"
                                },
                                "registered_name": null
                            },
                            "negative_slope": 0.1
                        }
                    },
                    {
                        "class_name": "Conv2D",
                        "config": {
                            "name": "conv2d_11",
                            "trainable": true,
                            "dtype": {
                                "module": "keras",
                                "class_name": "DTypePolicy",
                                "config": {
                                    "name": "float32"
                                },
                                "registered_name": null
                            },
                            "filters": 64,
                            "kernel_size": [
                                3,
                                3
                            ],
                            "strides": [
                                1,
                                1
                            ],
                            "padding": "same",
                            "data_format": "channels_last",
                            "dilation_rate": [
                                1,
                                1
                            ],
                            "groups": 1,
                            "activation": "linear",
                            "use_bias": false,
                            "kernel_initializer": {
                                "module": "keras.initializers",
                                "class_name": "GlorotUniform",
                                "config": {
                                    "seed": null
                                },
                                "registered_name": null
                            },
                            "bias_initializer": {
                                "module": "keras.initializers",
                                "class_name": "Zeros",
                                "config": {},
                                "registered_name": null
                            },
                            "kernel_regularizer": null,
                            "bias_regularizer": null,
                            "activity_regularizer": null,
                            "kernel_constraint": null,
                            "bias_constraint": null
                        }
                    },
                    {
                        "class_name": "BatchNormalization",
                        "config": {
                            "name": "batch_normalization_13",
                            "trainable": true,
                            "dtype": {
                                "module": "keras",
                                "class_name": "DTypePolicy",
                                "config": {
                                    "name": "float32"
                                },
                                "registered_name": null
                            },
                            "axis": -1,
                            "momentum": 0.99,
                            "epsilon": 0.001,
                            "center": true,
                            "scale": true,
                            "beta_initializer": {
                                "module": "keras.initializers",
                                "class_name": "Zeros",
                                "config": {},
                                "registered_name": null
                            },
                            "gamma_initializer": {
                                "module": "keras.initializers",
                                "class_name": "Ones",
                                "config": {},
                                "registered_name": null
                            },
                            "moving_mean_initializer": {
                                "module": "keras.initializers",
                                "class_name": "Zeros",
                                "config": {},
                                "registered_name": null
                            },
                            "moving_variance_initializer": {
                                "module": "keras.initializers",
                                "class_name": "Ones",
                                "config": {},
                                "registered_name": null
                            },
                            "beta_regularizer": null,
                            "gamma_regularizer": null,
                            "beta_constraint": null,
                            "gamma_constraint": null,
                            "synchronized": false
                        }
                    },
                    {
                        "class_name": "LeakyReLU",
                        "config": {
                            "name": "leaky_re_lu_13",
                            "trainable": true,
                            "dtype": {
                                "module": "keras",
                                "class_name": "DTypePolicy",
                                "config": {
                                    "name": "float32"
                                },
                                "registered_name": null
                            },
                            "negative_slope": 0.1
                        }
                    },
                    {
                        "class_name": "MaxPooling2D",
                        "config": {
                            "name": "max_pooling2d_5",
                            "trainable": true,
                            "dtype": {
                                "module": "keras",
                                "class_name": "DTypePolicy",
                                "config": {
                                    "name": "float32"
                                },
                                "registered_name": null
                            },
                            "pool_size": [
                                2,
                                2
                            ],
                            "padding": "valid",
                            "strides": [
                                2,
                                2
                            ],
                            "data_format": "channels_last"
                        }
                    },
                    {
                        "class_name": "Conv2D",
                        "config": {
                            "name": "conv2d_12",
                            "trainable": true,
                            "dtype": {
                                "module": "keras",
                                "class_name": "DTypePolicy",
                                "config": {
                                    "name": "float32"
                                },
                                "registered_name": null
                            },
                            "filters": 128,
                            "kernel_size": [
                                3,
                                3
                            ],
                            "strides": [
                                1,
                                1
                            ],
                            "padding": "same",
                            "data_format": "channels_last",
                            "dilation_rate": [
                                1,
                                1
                            ],
                            "groups": 1,
                            "activation": "linear",
                            "use_bias": false,
                            "kernel_initializer": {
                                "module": "keras.initializers",
                                "class_name": "GlorotUniform",
                                "config": {
                                    "seed": null
                                },
                                "registered_name": null
                            },
                            "bias_initializer": {
                                "module": "keras.initializers",
                                "class_name": "Zeros",
                                "config": {},
                                "registered_name": null
                            },
                            "kernel_regularizer": null,
                            "bias_regularizer": null,
                            "activity_regularizer": null,
                            "kernel_constraint": null,
                            "bias_constraint": null
                        }
                    },
                    {
                        "class_name": "BatchNormalization",
                        "config": {
                            "name": "batch_normalization_14",
                            "trainable": true,
                            "dtype": {
                                "module": "keras",
                                "class_name": "DTypePolicy",
                                "config": {
                                    "name": "float32"
                                },
                                "registered_name": null
                            },
                            "axis": -1,
                            "momentum": 0.99,
                            "epsilon": 0.001,
                            "center": true,
                            "scale": true,
                            "beta_initializer": {
                                "module": "keras.initializers",
                                "class_name": "Zeros",
                                "config": {},
                                "registered_name": null
                            },
                            "gamma_initializer": {
                                "module": "keras.initializers",
                                "class_name": "Ones",
                                "config": {},
                                "registered_name": null
                            },
                            "moving_mean_initializer": {
                                "module": "keras.initializers",
                                "class_name": "Zeros",
                                "config": {},
                                "registered_name": null
                            },
                            "moving_variance_initializer": {
                                "module": "keras.initializers",
                                "class_name": "Ones",
                                "config": {},
                                "registered_name": null
                            },
                            "beta_regularizer": null,
                            "gamma_regularizer": null,
                            "beta_constraint": null,
                            "gamma_constraint": null,
                            "synchronized": false
                        }
                    },
                    {
                        "class_name": "LeakyReLU",
                        "config": {
                            "name": "leaky_re_lu_14",
                            "trainable": true,
                            "dtype": {
                                "module": "keras",
                                "class_name": "DTypePolicy",
                                "config": {
                                    "name": "float32"
                                },
                                "registered_name": null
                            },
                            "negative_slope": 0.1
                        }
                    },
                    {
                        "class_name": "Conv2D",
                        "config": {
                            "name": "conv2d_13",
                            "trainable": true,
                            "dtype": {
                                "module": "keras",
                                "class_name": "DTypePolicy",
                                "config": {
                                    "name": "float32"
                                },
                                "registered_name": null
                            },
                            "filters": 128,
                            "kernel_size": [
                                3,
                                3
                            ],
                            "strides": [
                                1,
                                1
                            ],
                            "padding": "same",
                            "data_format": "channels_last",
                            "dilation_rate": [
                                1,
                                1
                            ],
                            "groups": 1,
                            "activation": "linear",
                            "use_bias": false,
                            "kernel_initializer": {
                                "module": "keras.initializers",
                                "class_name": "GlorotUniform",
                                "config": {
                                    "seed": null
                                },
                                "registered_name": null
                            },
                            "bias_initializer": {
                                "module": "keras.initializers",
                                "class_name": "Zeros",
                                "config": {},
                                "registered_name": null
                            },
                            "kernel_regularizer": null,
                            "bias_regularizer": null,
                            "activity_regularizer": null,
                            "kernel_constraint": null,
                            "bias_constraint": null
                        }
                    },
                    {
                        "class_name": "BatchNormalization",
                        "config": {
                            "name": "batch_normalization_15",
                            "trainable": true,
                            "dtype": {
                                "module": "keras",
                                "class_name": "DTypePolicy",
                                "config": {
                                    "name": "float32"
                                },
                                "registered_name": null
                            },
                            "axis": -1,
                            "momentum": 0.99,
                            "epsilon": 0.001,
                            "center": true,
                            "scale": true,
                            "beta_initializer": {
                                "module": "keras.initializers",
                                "class_name": "Zeros",
                                "config": {},
                                "registered_name": null
                            },
                            "gamma_initializer": {
                                "module": "keras.initializers",
                                "class_name": "Ones",
                                "config": {},
                                "registered_name": null
                            },
                            "moving_mean_initializer": {
                                "module": "keras.initializers",
                                "class_name": "Zeros",
                                "config": {},
                                "registered_name": null
                            },
                            "moving_variance_initializer": {
                                "module": "keras.initializers",
                                "class_name": "Ones",
                                "config": {},
                                "registered_name": null
                            },
                            "beta_regularizer": null,
                            "gamma_regularizer": null,
                            "beta_constraint": null,
                            "gamma_constraint": null,
                            "synchronized": false
                        }
                    },
                    {
                        "class_name": "LeakyReLU",
                        "config": {
                            "name": "leaky_re_lu_15",
                            "trainable": true,
                            "dtype": {
                                "module": "keras",
                                "class_name": "DTypePolicy",
                                "config": {
                                    "name": "float32"
                                },
                                "registered_name": null
                            },
                            "negative_slope": 0.1
                        }
                    },
                    {
                        "class_name": "MaxPooling2D",
                        "config": {
                            "name": "max_pooling2d_6",
                            "trainable": true,
                            "dtype": {
                                "module": "keras",
                                "class_name": "DTypePolicy",
                                "config": {
                                    "name": "float32"
                                },
                                "registered_name": null
                            },
                            "pool_size": [
                                2,
                                2
                            ],
                            "padding": "valid",
                            "strides": [
                                2,
                                2
                            ],
                            "data_format": "channels_last"
                        }
                    },
                    {
                        "class_name": "Conv2D",
                        "config": {
                            "name": "conv2d_14",
                            "trainable": true,
                            "dtype": {
                                "module": "keras",
                                "class_name": "DTypePolicy",
                                "config": {
                                    "name": "float32"
                                },
                                "registered_name": null
                            },
                            "filters": 256,
                            "kernel_size": [
                                3,
                                3
                            ],
                            "strides": [
                                1,
                                1
                            ],
                            "padding": "same",
                            "data_format": "channels_last",
                            "dilation_rate": [
                                1,
                                1
                            ],
                            "groups": 1,
                            "activation": "linear",
                            "use_bias": false,
                            "kernel_initializer": {
                                "module": "keras.initializers",
                                "class_name": "GlorotUniform",
                                "config": {
                                    "seed": null
                                },
                                "registered_name": null
                            },
                            "bias_initializer": {
                                "module": "keras.initializers",
                                "class_name": "Zeros",
                                "config": {},
                                "registered_name": null
                            },
                            "kernel_regularizer": null,
                            "bias_regularizer": null,
                            "activity_regularizer": null,
                            "kernel_constraint": null,
                            "bias_constraint": null
                        }
                    },
                    {
                        "class_name": "BatchNormalization",
                        "config": {
                            "name": "batch_normalization_16",
                            "trainable": true,
                            "dtype": {
                                "module": "keras",
                                "class_name": "DTypePolicy",
                                "config": {
                                    "name": "float32"
                                },
                                "registered_name": null
                            },
                            "axis": -1,
                            "momentum": 0.99,
                            "epsilon": 0.001,
                            "center": true,
                            "scale": true,
                            "beta_initializer": {
                                "module": "keras.initializers",
                                "class_name": "Zeros",
                                "config": {},
                                "registered_name": null
                            },
                            "gamma_initializer": {
                                "module": "keras.initializers",
                                "class_name": "Ones",
                                "config": {},
                                "registered_name": null
                            },
                            "moving_mean_initializer": {
                                "module": "keras.initializers",
                                "class_name": "Zeros",
                                "config": {},
                                "registered_name": null
                            },
                            "moving_variance_initializer": {
                                "module": "keras.initializers",
                                "class_name": "Ones",
                                "config": {},
                                "registered_name": null
                            },
                            "beta_regularizer": null,
                            "gamma_regularizer": null,
                            "beta_constraint": null,
                            "gamma_constraint": null,
                            "synchronized": false
                        }
                    },
                    {
                        "class_name": "LeakyReLU",
                        "config": {
                            "name": "leaky_re_lu_16",
                            "trainable": true,
                            "dtype": {
                                "module": "keras",
                                "class_name": "DTypePolicy",
                                "config": {
                                    "name": "float32"
                                },
                                "registered_name": null
                            },
                            "negative_slope": 0.1
                        }
                    },
                    {
                        "class_name": "Conv2D",
                        "config": {
                            "name": "conv2d_15",
                            "trainable": true,
                            "dtype": {
                                "module": "keras",
                                "class_name": "DTypePolicy",
                                "config": {
                                    "name": "float32"
                                },
                                "registered_name": null
                            },
                            "filters": 256,
                            "kernel_size": [
                                3,
                                3
                            ],
                            "strides": [
                                1,
                                1
                            ],
                            "padding": "same",
                            "data_format": "channels_last",
                            "dilation_rate": [
                                1,
                                1
                            ],
                            "groups": 1,
                            "activation": "linear",
                            "use_bias": false,
                            "kernel_initializer": {
                                "module": "keras.initializers",
                                "class_name": "GlorotUniform",
                                "config": {
                                    "seed": null
                                },
                                "registered_name": null
                            },
                            "bias_initializer": {
                                "module": "keras.initializers",
                                "class_name": "Zeros",
                                "config": {},
                                "registered_name": null
                            },
                            "kernel_regularizer": null,
                            "bias_regularizer": null,
                            "activity_regularizer": null,
                            "kernel_constraint": null,
                            "bias_constraint": null
                        }
                    },
                    {
                        "class_name": "BatchNormalization",
                        "config": {
                            "name": "batch_normalization_17",
                            "trainable": true,
                            "dtype": {
                                "module": "keras",
                                "class_name": "DTypePolicy",
                                "config": {
                                    "name": "float32"
                                },
                                "registered_name": null
                            },
                            "axis": -1,
                            "momentum": 0.99,
                            "epsilon": 0.001,
                            "center": true,
                            "scale": true,
                            "beta_initializer": {
                                "module": "keras.initializers",
                                "class_name": "Zeros",
                                "config": {},
                                "registered_name": null
                            },
                            "gamma_initializer": {
                                "module": "keras.initializers",
                                "class_name": "Ones",
                                "config": {},
                                "registered_name": null
                            },
                            "moving_mean_initializer": {
                                "module": "keras.initializers",
                                "class_name": "Zeros",
                                "config": {},
                                "registered_name": null
                            },
                            "moving_variance_initializer": {
                                "module": "keras.initializers",
                                "class_name": "Ones",
                                "config": {},
                                "registered_name": null
                            },
                            "beta_regularizer": null,
                            "gamma_regularizer": null,
                            "beta_constraint": null,
                            "gamma_constraint": null,
                            "synchronized": false
                        }
                    },
                    {
                        "class_name": "LeakyReLU",
                        "config": {
                            "name": "leaky_re_lu_17",
                            "trainable": true,
                            "dtype": {
                                "module": "keras",
                                "class_name": "DTypePolicy",
                                "config": {
                                    "name": "float32"
                                },
                                "registered_name": null
                            },
                            "negative_slope": 0.1
                        }
                    },
                    {
                        "class_name": "MaxPooling2D",
                        "config": {
                            "name": "max_pooling2d_7",
                            "trainable": true,
                            "dtype": {
                                "module": "keras",
                                "class_name": "DTypePolicy",
                                "config": {
                                    "name": "float32"
                                },
                                "registered_name": null
                            },
                            "pool_size": [
                                2,
                                2
                            ],
                            "padding": "valid",
                            "strides": [
                                2,
                                2
                            ],
                            "data_format": "channels_last"
                        }
                    },
                    {
                        "class_name": "Flatten",
                        "config": {
                            "name": "flatten_1",
                            "trainable": true,
                            "dtype": {
                                "module": "keras",
                                "class_name": "DTypePolicy",
                                "config": {
                                    "name": "float32"
                                },
                                "registered_name": null
                            },
                            "data_format": "channels_last"
                        }
                    },
                    {
                        "class_name": "Dense",
                        "config": {
                            "name": "dense_2",
                            "trainable": true,
                            "dtype": {
                                "module": "keras",
                                "class_name": "DTypePolicy",
                                "config": {
                                    "name": "float32"
                                },
                                "registered_name": null
                            },
                            "units": 512,
                            "activation": "linear",
                            "use_bias": false,
                            "kernel_initializer": {
                                "module": "keras.initializers",
                                "class_name": "GlorotUniform",
                                "config": {
                                    "seed": null
                                },
                                "registered_name": null
                            },
                            "bias_initializer": {
                                "module": "keras.initializers",
                                "class_name": "Zeros",
                                "config": {},
                                "registered_name": null
                            },
                            "kernel_regularizer": null,
                            "bias_regularizer": null,
                            "kernel_constraint": null,
                            "bias_constraint": null
                        }
                    },
                    {
                        "class_name": "BatchNormalization",
                        "config": {
                            "name": "batch_normalization_18",
                            "trainable": true,
                            "dtype": {
                                "module": "keras",
                                "class_name": "DTypePolicy",
                                "config": {
                                    "name": "float32"
                                },
                                "registered_name": null
                            },
                            "axis": -1,
                            "momentum": 0.99,
                            "epsilon": 0.001,
                            "center": true,
                            "scale": true,
                            "beta_initializer": {
                                "module": "keras.initializers",
                                "class_name": "Zeros",
                                "config": {},
                                "registered_name": null
                            },
                            "gamma_initializer": {
                                "module": "keras.initializers",
                                "class_name": "Ones",
                                "config": {},
                                "registered_name": null
                            },
                            "moving_mean_initializer": {
                                "module": "keras.initializers",
                                "class_name": "Zeros",
                                "config": {},
                                "registered_name": null
                            },
                            "moving_variance_initializer": {
                                "module": "keras.initializers",
                                "class_name": "Ones",
                                "config": {},
                                "registered_name": null
                            },
                            "beta_regularizer": null,
                            "gamma_regularizer": null,
                            "beta_constraint": null,
                            "gamma_constraint": null,
                            "synchronized": false
                        }
                    },
                    {
                        "class_name": "LeakyReLU",
                        "config": {
                            "name": "leaky_re_lu_18",
                            "trainable": true,
                            "dtype": {
                                "module": "keras",
                                "class_name": "DTypePolicy",
                                "config": {
                                    "name": "float32"
                                },
                                "registered_name": null
                            },
                            "negative_slope": 0.1
                        }
                    },
                    {
                        "class_name": "Dropout",
                        "config": {
                            "name": "dropout_2",
                            "trainable": true,
                            "dtype": {
                                "module": "keras",
                                "class_name": "DTypePolicy",
                                "config": {
                                    "name": "float32"
                                },
                                "registered_name": null
                            },
                            "rate": 0.5,
                            "seed": null,
                            "noise_shape": null
                        }
                    },
                    {
                        "class_name": "Dense",
                        "config": {
                            "name": "dense_3",
                            "trainable": true,
                            "dtype": {
                                "module": "keras",
                                "class_name": "DTypePolicy",
                                "config": {
                                    "name": "float32"
                                },
                                "registered_name": null
                            },
                            "units": 256,
                            "activation": "linear",
                            "use_bias": false,
                            "kernel_initializer": {
                                "module": "keras.initializers",
                                "class_name": "GlorotUniform",
                                "config": {
                                    "seed": null
                                },
                                "registered_name": null
                            },
                            "bias_initializer": {
                                "module": "keras.initializers",
                                "class_name": "Zeros",
                                "config": {},
                                "registered_name": null
                            },
                            "kernel_regularizer": null,
                            "bias_regularizer": null,
                            "kernel_constraint": null,
                            "bias_constraint": null
                        }
                    },
                    {
                        "class_name": "BatchNormalization",
                        "config": {
                            "name": "batch_normalization_19",
                            "trainable": true,
                            "dtype": {
                                "module": "keras",
                                "class_name": "DTypePolicy",
                                "config": {
                                    "name": "float32"
                                },
                                "registered_name": null
                            },
                            "axis": -1,
                            "momentum": 0.99,
                            "epsilon": 0.001,
                            "center": true,
                            "scale": true,
                            "beta_initializer": {
                                "module": "keras.initializers",
                                "class_name": "Zeros",
                                "config": {},
                                "registered_name": null
                            },
                            "gamma_initializer": {
                                "module": "keras.initializers",
                                "class_name": "Ones",
                                "config": {},
                                "registered_name": null
                            },
                            "moving_mean_initializer": {
                                "module": "keras.initializers",
                                "class_name": "Zeros",
                                "config": {},
                                "registered_name": null
                            },
                            "moving_variance_initializer": {
                                "module": "keras.initializers",
                                "class_name": "Ones",
                                "config": {},
                                "registered_name": null
                            },
                            "beta_regularizer": null,
                            "gamma_regularizer": null,
                            "beta_constraint": null,
                            "gamma_constraint": null,
                            "synchronized": false
                        }
                    },
                    {
                        "class_name": "LeakyReLU",
                        "config": {
                            "name": "leaky_re_lu_19",
                            "trainable": true,
                            "dtype": {
                                "module": "keras",
                                "class_name": "DTypePolicy",
                                "config": {
                                    "name": "float32"
                                },
                                "registered_name": null
                            },
                            "negative_slope": 0.1
                        }
                    },
                    {
                        "class_name": "Dropout",
                        "config": {
                            "name": "dropout_3",
                            "trainable": true,
                            "dtype": {
                                "module": "keras",
                                "class_name": "DTypePolicy",
                                "config": {
                                    "name": "float32"
                                },
                                "registered_name": null
                            },
                            "rate": 0.5,
                            "seed": null,
                            "noise_shape": null
                        }
                    },
                    {
                        "class_name": "Dense",
                        "config": {
                            "name": "output_layer",
                            "trainable": true,
                            "dtype": {
                                "module": "keras",
                                "class_name": "DTypePolicy",
                                "config": {
                                    "name": "float32"
                                },
                                "registered_name": null
                            },
                            "units": 9,
                            "activation": "softmax",
                            "use_bias": true,
                            "kernel_initializer": {
                                "module": "keras.initializers",
                                "class_name": "GlorotUniform",
                                "config": {
                                    "seed": null
                                },
                                "registered_name": null
                            },
                            "bias_initializer": {
                                "module": "keras.initializers",
                                "class_name": "Zeros",
                                "config": {},
                                "registered_name": null
                            },
                            "kernel_regularizer": null,
                            "bias_regularizer": null,
                            "kernel_constraint": null,
                            "bias_constraint": null
                        }
                    }
                ],
                "build_input_shape": [
                    null,
                    224,
                    224,
                    3
                ]
            }
        },
        "training_config": {
            "loss": "categorical_crossentropy",
            "loss_weights": null,
            "metrics": [
                "accuracy"
            ],
            "weighted_metrics": null,
            "run_eagerly": false,
            "steps_per_execution": 1,
            "jit_compile": false,
            "optimizer_config": {
                "class_name": "Adam",
                "config": {
                    "name": "adam",
                    "learning_rate": 0.0005000000237487257,
                    "weight_decay": null,
                    "clipnorm": null,
                    "global_clipnorm": null,
                    "clipvalue": null,
                    "use_ema": false,
                    "ema_momentum": 0.99,
                    "ema_overwrite_frequency": null,
                    "loss_scale_factor": null,
                    "gradient_accumulation_steps": null,
                    "beta_1": 0.9,
                    "beta_2": 0.999,
                    "epsilon": 1e-07,
                    "amsgrad": false
                }
            }
        }
    },
    "weightsManifest": [
        {
            "paths": [
                "group1-shard1of26.bin",
                "group1-shard2of26.bin",
                "group1-shard3of26.bin",
                "group1-shard4of26.bin",
                "group1-shard5of26.bin",
                "group1-shard6of26.bin",
                "group1-shard7of26.bin",
                "group1-shard8of26.bin",
                "group1-shard9of26.bin",
                "group1-shard10of26.bin",
                "group1-shard11of26.bin",
                "group1-shard12of26.bin",
                "group1-shard13of26.bin",
                "group1-shard14of26.bin",
                "group1-shard15of26.bin",
                "group1-shard16of26.bin",
                "group1-shard17of26.bin",
                "group1-shard18of26.bin",
                "group1-shard19of26.bin",
                "group1-shard20of26.bin",
                "group1-shard21of26.bin",
                "group1-shard22of26.bin",
                "group1-shard23of26.bin",
                "group1-shard24of26.bin",
                "group1-shard25of26.bin",
                "group1-shard26of26.bin"
            ],
            "weights": [
                {
                    "name": "sequential_1/batch_normalization_10/gamma",
                    "shape": [
                        32
                    ],
                    "dtype": "float32"
                },
                {
                    "name": "sequential_1/batch_normalization_10/beta",
                    "shape": [
                        32
                    ],
                    "dtype": "float32"
                },
                {
                    "name": "sequential_1/batch_normalization_10/moving_mean",
                    "shape": [
                        32
                    ],
                    "dtype": "float32"
                },
                {
                    "name": "sequential_1/batch_normalization_10/moving_variance",
                    "shape": [
                        32
                    ],
                    "dtype": "float32"
                },
                {
                    "name": "sequential_1/batch_normalization_11/gamma",
                    "shape": [
                        32
                    ],
                    "dtype": "float32"
                },
                {
                    "name": "sequential_1/batch_normalization_11/beta",
                    "shape": [
                        32
                    ],
                    "dtype": "float32"
                },
                {
                    "name": "sequential_1/batch_normalization_11/moving_mean",
                    "shape": [
                        32
                    ],
                    "dtype": "float32"
                },
                {
                    "name": "sequential_1/batch_normalization_11/moving_variance",
                    "shape": [
                        32
                    ],
                    "dtype": "float32"
                },
                {
                    "name": "sequential_1/batch_normalization_12/gamma",
                    "shape": [
                        64
                    ],
                    "dtype": "float32"
                },
                {
                    "name": "sequential_1/batch_normalization_12/beta",
                    "shape": [
                        64
                    ],
                    "dtype": "float32"
                },
                {
                    "name": "sequential_1/batch_normalization_12/moving_mean",
                    "shape": [
                        64
                    ],
                    "dtype": "float32"
                },
                {
                    "name": "sequential_1/batch_normalization_12/moving_variance",
                    "shape": [
                        64
                    ],
                    "dtype": "float32"
                },
                {
                    "name": "sequential_1/batch_normalization_13/gamma",
                    "shape": [
                        64
                    ],
                    "dtype": "float32"
                },
                {
                    "name": "sequential_1/batch_normalization_13/beta",
                    "shape": [
                        64
                    ],
                    "dtype": "float32"
                },
                {
                    "name": "sequential_1/batch_normalization_13/moving_mean",
                    "shape": [
                        64
                    ],
                    "dtype": "float32"
                },
                {
                    "name": "sequential_1/batch_normalization_13/moving_variance",
                    "shape": [
                        64
                    ],
                    "dtype": "float32"
                },
                {
                    "name": "sequential_1/batch_normalization_14/gamma",
                    "shape": [
                        128
                    ],
                    "dtype": "float32"
                },
                {
                    "name": "sequential_1/batch_normalization_14/beta",
                    "shape": [
                        128
                    ],
                    "dtype": "float32"
                },
                {
                    "name": "sequential_1/batch_normalization_14/moving_mean",
                    "shape": [
                        128
                    ],
                    "dtype": "float32"
                },
                {
                    "name": "sequential_1/batch_normalization_14/moving_variance",
                    "shape": [
                        128
                    ],
                    "dtype": "float32"
                },
                {
                    "name": "sequential_1/batch_normalization_15/gamma",
                    "shape": [
                        128
                    ],
                    "dtype": "float32"
                },
                {
                    "name": "sequential_1/batch_normalization_15/beta",
                    "shape": [
                        128
                    ],
                    "dtype": "float32"
                },
                {
                    "name": "sequential_1/batch_normalization_15/moving_mean",
                    "shape": [
                        128
                    ],
                    "dtype": "float32"
                },
                {
                    "name": "sequential_1/batch_normalization_15/moving_variance",
                    "shape": [
                        128
                    ],
                    "dtype": "float32"
                },
                {
                    "name": "sequential_1/batch_normalization_16/gamma",
                    "shape": [
                        256
                    ],
                    "dtype": "float32"
                },
                {
                    "name": "sequential_1/batch_normalization_16/beta",
                    "shape": [
                        256
                    ],
                    "dtype": "float32"
                },
                {
                    "name": "sequential_1/batch_normalization_16/moving_mean",
                    "shape": [
                        256
                    ],
                    "dtype": "float32"
                },
                {
                    "name": "sequential_1/batch_normalization_16/moving_variance",
                    "shape": [
                        256
                    ],
                    "dtype": "float32"
                },
                {
                    "name": "sequential_1/batch_normalization_17/gamma",
                    "shape": [
                        256
                    ],
                    "dtype": "float32"
                },
                {
                    "name": "sequential_1/batch_normalization_17/beta",
                    "shape": [
                        256
                    ],
                    "dtype": "float32"
                },
                {
                    "name": "sequential_1/batch_normalization_17/moving_mean",
                    "shape": [
                        256
                    ],
                    "dtype": "float32"
                },
                {
                    "name": "sequential_1/batch_normalization_17/moving_variance",
                    "shape": [
                        256
                    ],
                    "dtype": "float32"
                },
                {
                    "name": "sequential_1/batch_normalization_18/gamma",
                    "shape": [
                        512
                    ],
                    "dtype": "float32"
                },
                {
                    "name": "sequential_1/batch_normalization_18/beta",
                    "shape": [
                        512
                    ],
                    "dtype": "float32"
                },
                {
                    "name": "sequential_1/batch_normalization_18/moving_mean",
                    "shape": [
                        512
                    ],
                    "dtype": "float32"
                },
                {
                    "name": "sequential_1/batch_normalization_18/moving_variance",
                    "shape": [
                        512
                    ],
                    "dtype": "float32"
                },
                {
                    "name": "sequential_1/batch_normalization_19/gamma",
                    "shape": [
                        256
                    ],
                    "dtype": "float32"
                },
                {
                    "name": "sequential_1/batch_normalization_19/beta",
                    "shape": [
                        256
                    ],
                    "dtype": "float32"
                },
                {
                    "name": "sequential_1/batch_normalization_19/moving_mean",
                    "shape": [
                        256
                    ],
                    "dtype": "float32"
                },
                {
                    "name": "sequential_1/batch_normalization_19/moving_variance",
                    "shape": [
                        256
                    ],
                    "dtype": "float32"
                },
                {
                    "name": "sequential_1/conv2d_10/kernel",
                    "shape": [
                        3,
                        3,
                        32,
                        64
                    ],
                    "dtype": "float32"
                },
                {
                    "name": "sequential_1/conv2d_11/kernel",
                    "shape": [
                        3,
                        3,
                        64,
                        64
                    ],
                    "dtype": "float32"
                },
                {
                    "name": "sequential_1/conv2d_12/kernel",
                    "shape": [
                        3,
                        3,
                        64,
                        128
                    ],
                    "dtype": "float32"
                },
                {
                    "name": "sequential_1/conv2d_13/kernel",
                    "shape": [
                        3,
                        3,
                        128,
                        128
                    ],
                    "dtype": "float32"
                },
                {
                    "name": "sequential_1/conv2d_14/kernel",
                    "shape": [
                        3,
                        3,
                        128,
                        256
                    ],
                    "dtype": "float32"
                },
                {
                    "name": "sequential_1/conv2d_15/kernel",
                    "shape": [
                        3,
                        3,
                        256,
                        256
                    ],
                    "dtype": "float32"
                },
                {
                    "name": "sequential_1/conv2d_8/kernel",
                    "shape": [
                        3,
                        3,
                        3,
                        32
                    ],
                    "dtype": "float32"
                },
                {
                    "name": "sequential_1/conv2d_9/kernel",
                    "shape": [
                        3,
                        3,
                        32,
                        32
                    ],
                    "dtype": "float32"
                },
                {
                    "name": "sequential_1/dense_2/kernel",
                    "shape": [
                        50176,
                        512
                    ],
                    "dtype": "float32"
                },
                {
                    "name": "sequential_1/dense_3/kernel",
                    "shape": [
                        512,
                        256
                    ],
                    "dtype": "float32"
                },
                {
                    "name": "sequential_1/output_layer/kernel",
                    "shape": [
                        256,
                        9
                    ],
                    "dtype": "float32"
                },
                {
                    "name": "sequential_1/output_layer/bias",
                    "shape": [
                        9
                    ],
                    "dtype": "float32"
                }
            ]
        }
    ]
}